nlp_project/data.pth (torch, 8305 bytes, 6 tensors)

l1.weight f4 [8, 107]
0.1340114 -0.024023972 0.42281902 0.6385768 0.2909723 0.34155798 0.43297127 -0.04977984
0.2671331 0.51754254 0.4247355 -0.6628292 0.65131027 0.73376566 -0.4269443 -0.15690196
0.95377237 -0.03803285 0.5393361 0.45650247 -0.020808207 0.346306 -0.63250375 -1.1382955
-0.24295512 0.23707145 0.2954468 0.7903599 0.059541706 -0.009503249 -0.0011565383 0.3040441
0.3985439 0.4344503 0.85277337 0.6898421 0.63062006 0.5109589 -0.28316194 0.41827276
0.45910186 0.4041656 -0.111283235 0.25798875 0.68342817 -0.67524785 0.056392286 0.8898131
0.36601624 0.4881533 0.06280241 -0.031199092 -0.09876375 -0.03928362 0.42990673 0.38643187
0.8825508 0.20335661 0.2282114 0.79657775 -0.058406923 0.581972 0.7656997 0.041834652
0.02658964 -0.4362243 -0.18781427 0.025831107 0.6234885 0.8184372 -0.31971636 0.025669442
-0.038516093 0.20656247 0.29474562 0.56123775 0.83707666 -0.7467982 -0.054190654 1.0243806
-0.06950131 0.47550973 0.7813731 0.44639763 0.40829447 0.5039988 0.018527072 0.06187265
-0.09453438 -0.7032465 -0.7004064 0.03942711 0.44671342 -0.0040921783 -0.7867909 -0.29977018
0.69741595 0.14480858 0.2662839 0.44977486 -0.19580552 0.56841224 -0.15831459 0.30056933
-0.2505427 -0.061660863 0.6926583 0.6914758 0.32852513 -0.3594408 0.14161175 -0.054641165
0.6461699 0.44669566 0.2667136 -0.13995804 -0.6075466 1.1424527 0.21618593 0.15658334
0.29176772 0.41169086 -0.34774905 0.07105437 -0.24417911 -0.1824875 0.019243596 0.26123667
-0.23266275 0.44980037 0.75134736 0.054100383 -0.020056305 0.2587916 -0.42737985 0.21889131
0.133966 0.32855123 -0.20434646 1.167854 0.907449 -0.28756177 -0.92501086 -0.8281053
-0.51467824 0.4176121 -0.55039704 -0.4946833 0.47097927 0.28348425 0.64167315 -0.84447134
0.34660864 0.17247061 -0.15342802 -0.24199992 -0.039710097 0.3174237 -0.66701096 0.44941747
1.1396422 0.6939493 0.70770574 0.5261046 -0.35353625 0.35319152 0.15843898 0.4139508
-0.2612635 -0.985597 0.35724843 0.5860485 0.40582424 0.46980613 0.37093008 0.2436494
-0.7976735 0.14798427 0.24339353 -0.07119895 0.028292743 -0.23675212 -0.3828651 -0.496591
-0.14670207 -0.19544636 -0.020517891 -0.24014641 0.41493016 -0.70784825 -0.49022457 -0.53661776
-0.250154 0.6547911 -0.71373636 0.27597722 0.7933811 0.76819175 0.2106496 0.32583937
-0.2172083 1.022034 0.42836553 -0.6548448 -0.36433858 0.29759333 0.6958049 -0.05429131
-0.09123961 0.38960257 -0.09628416 0.35935748 -0.11438926 0.20376098 0.40427414 0.09704032
0.2177155 -0.034396004 -0.1602776 -0.18084809 0.3370679 -0.269722 -0.07571663 0.888057
-0.23407567 0.17615832 -0.2925149 -0.6414761 -0.30688184 0.2412602 0.9052778 0.04772878
0.40201184 -0.0035282373 -0.011121048 -0.15093754 -0.24270083 -0.012856157 -0.4674446 -0.5619839
0.2310401 0.707211 -0.18634966 -0.023591071 -0.0297125 -0.16956323 -0.24771778 -0.09078168
1.188318 -0.502065 0.7521733 -0.3206098 -0.21246284 -0.3206261 -0.32048458 0.63798827
00000000: 493a 093e eccd c4bc bc7b d83e c579 233f
00000010: 52fa 943e b0e0 ae3e 69ae dd3e f2e5 4bbd
00000020: abc5 883e ab7d 043f ee76 d93e 2daf 29bf
00000030: 45bc 263f 11d8 3b3f 7198 dabe e8aa 20be
00000040: 6d2a 743f 55c8 1bbd ee11 0a3f b1ba e93e
00000050: f975 aabc 054f b13e c4eb 21bf abb3 91bf
00000060: 3ac9 78be dcc2 723e ce44 973e 0755 4a3f
00000070: 01e2 733d 84b3 1bbc fc96 97ba abab 9b3e
00000080: f20d cc3e 4570 de3e 5b4f 5a3f 7e99 303f
00000090: 5170 213f 34ce 023f 9afa 90be d927 d63e
000000a0: 660f eb3e cbee ce3e 77e8 e3bd 1a17 843e
000000b0: 26f5 2e3f 0bdd 2cbf 99fb 663d cbca 633f
000000c0: 7b66 bb3e 3bef f93e 8d9e 803d 3d95 ffbc
000000d0: a644 cabd dce7 20bd bc1c dc3e 66da c53e
000000e0: d9ee 613f b73c 503e 40b0 693e 85ec 4b3f
000000f0: 193c 6fbd 1efc 143f e504 443f d05a 2b3d
00000100: 84d2 d93c cb58 dfbe 6252 40be c29b d33c
00000110: f19c 1f3f 1a85 513f ddb1 a3be b948 d23c
00000120: 0dc3 1dbd 1d85 533e e6e8 963e 47ad 0f3f
00000130: a84a 563f 2b2e 3fbf 05f7 5dbd e71e 833f
00000140: b456 8ebd 0376 f33e 1108 483f 3b8e e43e
00000150: f90b d13e 1106 013f 16c6 973c 2d6e 7d3d
00000160: 3e9b c1bd f607 34bf d54d 33bf 527e 213d
00000170: 9fb7 e43e ae17 86bb 216b 49bf 7a7b 99be
00000180: da89 323f b348 143e 5d56 883e e448 e63e
00000190: 3e81 48be 7783 113f 381d 22be 39e4 993e
000001a0: 2247 80be 1a90 7cbd 0e52 313f 8f04 313f
000001b0: 7234 a83e a008 b8be ac02 113e 6acf 5fbd
000001c0: 646b 253f 4bb5 e43e af8e 883e 2951 0fbe
000001d0: 2d88 1bbf e43b 923f d85f 5d3e 6257 203e
000001e0: 9462 953e 25c9 d23e 2a0c b2be f484 913d
000001f0: 170a 7abe 01de 3abe bfa4 9d3c d0c0 853e
00000200: 253f 6ebe 3c4c e63e 4d58 403f 5d98 5d3d
00000210: 1f4d a4bc 5580 843e 88d1 dabe 0b25 603e
00000220: 622e 093e de37 a83e 3340 51be 3d7c 953f
00000230: 944e 683f 4c3b 93be 83cd 6cbf b5fe 53bf
00000240: f4c1 03bf 41d1 d53e d2e6 0cbf 2147 fdbe
00000250: 3224 f13e d924 913e b144 243f 462f 58bf
00000260: b076 b13e 239c 303e 3c1c 1dbe d4ce 77be
00000270: 0ea7 22bd 5c85 a23e 3bc1 2abf 0c1a e63e
00000280: ccdf 913f a9a6 313f 342c 353f cbae 063f
00000290: b402 b5be 85d5 b43e d43d 223e 5cf1 d33e
000002a0: 54c4 85be 1650 7cbf 44e9 b63e 4607 163f
000002b0: 32c8 cf3e 6e8a f03e 8cea bd3e 3a7f 793e
000002c0: 5534 4cbf 3089 173e 273c 793e c1d0 91bd
000002d0: 2fc6 e73c 266f 72be e506 c4be 2d41 febe
000002e0: 1139 16be 1723 48be 2315 a8bc f1e8 75be
000002f0: ba71 d43e 8b35 35bf b7fe fabe c85f 09bf
00000300: 2f14 80be 64a0 273f 6db7 36bf e34c 8d3e
00000310: 061b 4b3f 37a8 443f 87b4 573e 6bd4 a63e
00000320: da6b 5ebe 03d2 823f ba52 db3e e9a3 27bf
00000330: 968a babe 275e 983e 4520 323f 9160 5ebd
00000340: d5db babd fd79 c73e a130 c5bd b4fd b73e
00000350: eb44 eabd b8a6 503e 05fd ce3e 13bd c63d
00000360: d0f0 5e3e d3e2 0cbd d01f 24be 3e30 39be
00000370: 2a94 ac3e 0119 8abe 5211 9bbd b457 633f
00000380: 88b1 6fbe d962 343e 83c4 95be c737 24bf
00000390: 9e1f 9dbe ea0c 773e 49c0 673f 417f 433d
000003a0: 7fd4 cd3e 003a 67bb 0e35 36bc 5f8f 1abe
000003b0: 9186 78be a1a2 52bc e654 efbe 2dde 0fbf
000003c0: c795 6c3e c80b 353f 72d2 3ebe 1042 c1bc
000003d0: a167 f3bc fca1 2dbe bba9 7dbe bfeb b9bd
000003e0: ce1a 983f 5587 00bf 6e8e 403f f826 a4be
000003f0: dc8f 59be 1b29 a4be 8e16 a4be 3353 233f

l1.bias f4 [8]
0.7212084 0.9857054 0.32056552 0.57270473 0.85802287 0.60726976 0.69147307 0.98996687
00000000: 1da1 383f 3057 7c3f 2a21 a43e c79c 123f
00000010: 63a7 5b3f 0876 1b3f 6104 313f 786e 7d3f

l2.weight f4 [8, 8]
-0.27206257 0.83883095 -1.6690044 0.37780437 -0.6368802 0.5075237 1.4443929 1.7348772
-0.89210284 1.8704114 0.06533295 1.1588763 0.73833674 0.72190696 -1.5244316 1.2119284
-0.28658378 0.23348534 -0.107240126 -0.03784913 -0.01845476 -0.16305903 0.23475063 -0.4492839
-1.2485583 -0.24142604 -0.31367505 1.2923677 2.088133 -0.49701688 0.5723351 1.5231341
-1.3431933 0.70144033 0.8469017 -0.78603995 -0.63157874 -1.1979165 1.0277216 -0.19726054
1.4235584 1.432384 0.0090504605 -1.6778082 1.0022371 -2.0433757 -0.43062538 0.80044186
0.6715883 1.8357923 0.62823015 1.0358337 -0.74960506 0.4028826 -1.8370079 0.07603068
1.9097674 -1.5923249 2.1451838 0.84506035 1.7952659 1.8454945 1.3274649 -0.24303141
00000000: c94b 8bbe a0bd 563f f0a1 d5bf 936f c13e
00000010: 950a 23bf 13ed 013f dee1 b83f 7510 de3f
00000020: da60 64bf a469 ef3f 48cd 853d 0f56 943f
00000030: a303 3d3f e5ce 383f 9320 c3bf 7820 9b3f
00000040: 1cbb 92be c816 6f3e b6a0 dbbd b007 1bbd
00000050: 702e 97bc f2f8 26be 7862 703e 8a08 e6be
00000060: c2d0 9fbf 6338 77be 049a a0be 4e6c a53f
00000070: f9a3 0540 ff78 febe 8e84 123f 0ff6 c23f
00000080: c2ed abbf 9891 333f 8dce 583f ea39 49bf
00000090: 25af 21bf 5455 99bf 628c 833f abfe 49be
000000a0: 2937 b63f 5c58 b73f 6248 143c 6bc2 d6bf
000000b0: 4e49 803f abc6 02c0 ee7a dcbe c2e9 4c3f
000000c0: 36ed 2b3f 3efb ea3f b1d3 203f 3396 843f
000000d0: 1ee6 3fbf a146 ce3e 1323 ebbf f9b5 9b3d
000000e0: 4273 f43f 4dd1 cbbf b14a 0940 e055 583f
000000f0: 46cb e53f 2a39 ec3f 5fea a93f 3add 78be

l2.bias f4 [8]
0.86237675 -0.070092626 -0.36471206 -0.16033384 0.38985392 1.3341724 0.6574909 0.6776939
00000000: b9c4 5c3f b98c 8fbd 8abb babe 8e2e 24be
00000010: ef9a c73e 29c6 aa3f 5351 283f 597d 2d3f

l3.weight f4 [11, 8]
-1.7664557 -1.9420594 0.13809794 0.0074434313 -1.3315271 0.49987203 -1.1383306 0.6685771
-0.7205687 0.6959648 -0.1919387 0.53808284 -0.7144432 -2.0078297 -0.061303515 -0.22128601
0.11077155 0.35234773 0.065385275 0.4374077 -0.9920089 0.6570225 -0.7116153 -1.1725309
-1.040342 0.50428337 0.24101605 -1.3532126 -0.8582985 -0.099677 0.7906206 -0.3070467
-0.1955343 0.24778831 -0.13319777 -1.1973493 -0.7168776 1.1953715 0.73246884 -2.2156968
1.3520516 -2.335533 0.24656229 -0.5810661 -0.97370213 -2.1647172 -1.2959594 0.5328853
-0.8236476 -1.1160437 -0.33111656 0.3943243 -0.7327498 -2.5294802 -1.8033087 0.90513307
0.82665056 -0.3025824 -0.20742244 1.0631412 -1.0580662 -0.7944878 -1.8588175 -0.39386275
0.292617 -2.2055774 -0.28415057 -1.5541095 1.1023781 1.2569922 0.26976618 -0.32923704
-1.3837699 -0.6008461 -0.20055042 -0.45421842 -0.9836603 -2.4362779 0.5802143 0.58194935
0.4919133 0.5738556 0.0764753 0.20845014 -0.7756952 -1.0097495 0.8233463 -1.6767118
00000000: 381b e2bf 6795 f8bf 8c69 0d3e 07e8 f33b
00000010: 7b6f aabf 3aef ff3e d1b4 91bf de27 2b3f
00000020: 3177 38bf c02a 323f 948b 44be ccbf 093f
00000030: c0e5 36bf 4880 00c0 6519 7bbd cd98 62be
00000040: 32dc e23d ec66 b43e b7e8 853d e7f3 df3e
00000050: 4cf4 7dbf a032 283f 6c2c 36bf 7e15 96bf
00000060: ed29 85bf b718 013f e9cc 763e 1236 adbf
00000070: 73b9 5bbf 7423 ccbd 1d66 4a3f 3a35 9dbe
00000080: 253a 48be 38bc 7d3e ff64 08be be42 99bf
00000090: 4a85 37bf ef01 993f 1483 3b3f facd 0dc0
000000a0: 0710 ad3f 5f79 15c0 d37a 7c3e bfc0 14bf
000000b0: 8b44 79bf ba8a 0ac0 ffe1 a5bf 2c6b 083f
000000c0: 92da 52bf 85da 8ebf 1c88 a9be e0e4 c93e
000000d0: 7e95 3bbf 01e3 21c0 d2d2 e6bf cdb6 673f
000000e0: 5f9f 533f 15ec 9abe 8c66 54be 0315 883f
000000f0: b76e 87bf 8d63 4bbf bbed edbf 61a8 c9be
00000100: e5d1 953e 2e28 0dc0 2f7c 91be 0fed c6bf
00000110: ba1a 8d3f 1fe5 a03f cb1e 8a3e c291 a8be
00000120: 5f1f b1bf 0dd1 19bf 175d 4dbe 518f e8be
00000130: 29d1 7bbf faeb 1bc0 ed88 143f a2fa 143f
00000140: 0fdc fb3e 33e8 123f 159f 9c3d f473 553e
00000150: f693 46bf 793f 81bf d3c6 523f 7e9e d6bf

l3.bias f4 [11]
0.20759854 -0.42249513 -0.81107974 0.065881155 0.065046504 0.69343925 -0.40965304 -0.4744407
0.71371233 -0.37259662 -0.21994074
00000000: b694 543e 4851 d8be eca2 4fbf b3ec 863d
00000010: 1a37 853d 3c85 313f 0bbe d1be e4e9 f2be
00000020: dab5 363f fcc4 bebe 2538 61be
